…
add(Flatten())\n","model.add(Dense(512, activation='relu'))\n","model.add(Dropout(0.5))\n","model.add(Dense(10,activation='softmax'))"]},{"cell_type":"code","execution_count":null,"id":"12c265a5","metadata":{"id":"12c265a5","outputId":"e653800b-c6d2-4d50-becd-0cf112f1b9ea"},"outputs":[{"name":"stdout","output_type":"stream","text":["Model: \"sequential\"\n","_________________________________________________________________\n"," Layer (type)                Output Shape              Param #   \n","=================================================================\n"," conv2d (Conv2D)             (None, 32, 32, 32)        896       \n","                                                                 \n"," conv2d_1 (Conv2D)           (None, 30, 30, 32)        9248      \n","                                                                 \n"," max_pooling2d (MaxPooling2D  (None, 15, 15, 32)       0         \n"," )                                                               \n","                                                                 \n"," dropout (Dropout)           (None, 15, 15, 32)        0         \n","                                                                 \n"," conv2d_2 (Conv2D)           (None, 15, 15, 64)        18496     \n","                                                                 \n"," conv2d_3 (Conv2D)           (None, 13, 13, 32)        18464     \n","                                                                 \n"," max_pooling2d_1 (MaxPooling  (None, 6, 6, 32)         0         \n"," 2D)                                                             \n","                                                                 \n"," dropout_1 (Dropout)         (None, 6, 6, 32)          0         \n","                                                                 \n"," flatten (Flatten)           (None, 1152)              0         \n","                                                                 \n"," dense (Dense)               (None, 512)               590336    \n","                                                                 \n"," dropout_2 (Dropout)         (None, 512)               0         \n","                                                                 \n"," dense_1 (Dense)             (None, 10)                5130      \n","                                                                 \n","=================================================================\n","Total params: 642,570\n","Trainable params: 642,570\n","Non-trainable params: 0\n","_________________________________________________________________\n"]}],"source":["model.compile(\n","    loss='categorical_crossentropy',\n","    optimizer='adam',\
…
tadata":{"id":"a4401877"},"outputs":[],"source":["input_shape=(len(train_X[0]),)\n","output_shape=len(train_y[0])\n","\n","epochs=500"]},{"cell_type":"code","execution_count":null,"id":"6ca52543","metadata":{"id":"6ca52543","outputId":"faed3059-7253-4620-bb0a-8b6e51271b60"},"outputs":[{"name":"stdout","output_type":"stream","text":["Model: \"sequential\"\n","_________________________________________________________________\n"," Layer (type)                Output Shape              Param #   \n","=================================================================\n"," dense (Dense)               (None, 128)               4736      \n","                                                                 \n"," dropout (Dropout)           (None, 128)               0         \n","                                                                 \n"," dense_1 (Dense)             (None, 64)                8256      \n","                                                                 \n"," dropout_1 (Dropout)         (None, 64)                0         \n","                                                                 \n"," dense_2 (Dense)             (None, 5)                 325       \n","                                                                 \n","=================================================================\n","Total params: 13,317\n","Trainable params: 13,317\n","Non-trainable params: 0\n","_________________________________________________________________\n","None\n"]}],"source":["model=Sequential()\n","model.add(Dense(128, input_shape=input_shape,activa
…
